checkpoint_critic.pth (torch_old, 435433 bytes, 7 tensors)

fc1.weight f4 [256, 33]
00000000: 0bbe dd00 f617 9800 0aa2 bf80 0ee3 f500
00000010: fcee f780 5168 de81 04cb fd80 74aa 0480
00000020: 7b76 2e00 2027 2900 5ff2 4700 a975 a980
00000030: 2c16 ea00 7f00 8600 6fdb f600 acb7 c200
00000040: 6b48 1180 baa5 b800 f379 1f00 f019 9400
00000050: 6ab3 3100 277d 7580 a639 6200 b9ad 9200
00000060: a5c4 8780 4bfc c200 ac80 b500 1def 2b80
00000070: 0913 b500 8026 ba01 a826 af00 e6bf e880
00000080: b240 d400 ca15 3380 636a c181 3ad9 1280
00000090: 2460 7300 b9e2 6780 a001 8a00 20db df80
000000a0: 128c eb80 9bfa 8080 5a25 8800 5eda 6380
000000b0: 2d52 d780 77c7 d480 b165 7380 a5a3 ba80
000000c0: a4d9 e100 34c4 ef80 1325 5000 1062 7a80
000000d0: bc60 7881 d2de 7f00 35f1 2c80 3dfb b980
000000e0: b739 a100 8615 ca80 617e 9880 940c 3e80
000000f0: a6f3 3a00 6c61 7900 0d7b 8800 48bc ef80
00000100: de63 5b80 5e01 2a80 88be 0380 a767 3700
00000110: 29f9 fc80 eca8 0c00 e6dc a680 153f ed00
00000120: 9cea a800 41d7 e900 4f60 9880 cac5 5a00
00000130: 2c26 c980 e577 ce80 fee8 7600 cb38 5880
00000140: fec3 8000 a1e5 0900 f237 3580 f888 9380
00000150: cf07 d000 66f9 2280 b5bb c000 3cf3 fd80
00000160: 2507 7e00 f1e8 4d00 2213 6c00 bb20 5100
00000170: afb0 3400 2c89 3600 7986 0700 f434 3600
00000180: 9061 8e80 7c49 2e00 ed23 0480 c820 4500
00000190: 66a8 7a00 bcc3 1580 5c4b 2e00 c477 4600
000001a0: 30c0 2300 11ba b880 024d 0d00 ba85 8f80
000001b0: 6c69 4f00 eeba d000 a187 3980 c062 a780
000001c0: aae9 1a80 fba5 2700 983e 0600 1e44 4b80
000001d0: 768a 2f00 ca17 6400 c72d 8400 d9aa 5180
000001e0: bc52 aa80 ce45 4380 b4f2 2280 928d 1000
000001f0: 1ef0 aa80 3ff1 8980 2a08 8200 ddec 3200
00000200: fd6e 4880 bdfa d780 1232 8780 ea5c 0180
00000210: f369 9e00 9ef7 8a80 78b7 2880 74bd 9f00
00000220: d47f 3f00 15ef 6e00 687a 6900 b5df 3600
00000230: 4b78 4080 2d56 9600 0258 0e80 5949 1e00
00000240: d29c b100 6622 7100 a156 1500 9567 7700
00000250: b6a3 ef80 60f9 4d80 f803 c880 f500 5d00
00000260: d19c 0100 7afc 4a00 8d61 8380 39f2 8280
00000270: 3cb0 d200 5163 b280 d6c0 a280 f679 e580
00000280: 60ae ce80 b395 1800 761c b580 b07f 2100
00000290: c76e 6680 00c5 d480 5461 be80 a09d 6180
000002a0: cb4b 7680 100d 8e80 e818 1180 b8ec 0e80
000002b0: db65 6800 7128 2c80 7fb2 6380 37e7 1600
000002c0: 73cc 8180 86e7 5a00 6036 f100 d16d 7400
000002d0: d8ab 9e80 df06 f600 1d6e a680 8b77 1300
000002e0: 7054 d380 ae94 7780 1640 1880 78c3 6180
000002f0: abb2 2e00 e57f 9c80 7cca 4b80 d630 4480
00000300: 86bb cf00 a79a 3700 3db8 9780 445b 8b00
00000310: 647d 4600 1601 e500 587e e280 1961 e600
00000320: b06d 5700 6516 5c00 9ca2 d380 b81f 2e80
00000330: ca62 a700 04d8 b200 8a24 2d80 c047 0e00
00000340: 0c54 2100 8124 cd00 9342 cb80 bc6a 9780
00000350: 3553 b300 69a5 af00 7aa4 fa80 3e45 b380
00000360: fbdb 1780 ec8a 2900 d584 4280 50b3 3f00
00000370: df33 2480 2458 4b00 f36f d480 fcd7 9f00
00000380: 8cc0 0f80 4ed5 6a80 a41a 4b00 a6d9 3080
00000390: b18a d400 bdaf 0c80 c8be 6380 6c83 3980
000003a0: ab6a 7600 a368 9700 3aec 8100 d95b 5300
000003b0: 1cbb bd80 022e 5200 b896 4780 d037 ea00
000003c0: 50b5 7a00 b0b2 b780 32d6 a380 d1fb 4d00
000003d0: 9966 8580 8f0d 2480 2282 e080 4285 c100
000003e0: 34ae 6f00 eb02 b200 2c35 1180 c10e a800
000003f0: da3e 9300 9d12 6500 9554 b700 a89b a380
2.0363819e-38 1.3967591e-38 -1.7598708e-38 2.2581148e-38 -2.2769099e-38 -8.169961e-38 -2.3307209e-38 -4.28489e-40
4.266936e-39 3.779291e-39 6.607267e-39 -1.5562407e-38 2.149746e-38 1.2306134e-38 2.267025e-38 1.7881975e-38
-1.587182e-39 1.6957183e-38 2.890648e-39 1.3600958e-38 4.564301e-39 -1.0789649e-38 9.020559e-39 1.3470302e-38
-1.2468335e-38 1.7906592e-38 1.6668384e-38 -4.034704e-39 1.6629053e-38 6.8380854e-38 1.6085079e-38 -2.1374675e-38
1.9492333e-38 -4.691427e-39 -7.104966e-38 -1.730965e-39 1.0595571e-38 -9.540389e-39 1.2673881e-38 -2.0557923e-38
-2.163159e-38 -1.1844844e-38 1.2503027e-38 -9.17005e-39 -1.9774111e-38 -1.954068e-38 -1.0597562e-38 -1.7140107e-38
2.0741061e-38 -2.2019068e-38 7.36014e-39 -1.1239109e-38 -4.561981e-38 1.1743041e-38 -4.12729e-39 -1.7079694e-38
1.4806219e-38 -1.8558491e-38 -1.4004332e-38 -5.698313e-39 5.413863e-39 1.1147043e-38 1.253377e-38 -2.2016226e-38
-8.392856e-39 -3.857581e-39 -3.43856e-40 5.088136e-39 -2.3231927e-38 1.162624e-39 -1.5323936e-38 2.1787642e-38
1.5512525e-38 2.1474889e-38 -1.3993544e-38 8.336148e-39 -1.8472628e-38 -1.8961122e-38 1.092017e-38 -8.101897e-39
1.1825252e-38 9.08895e-40 -4.88735e-39 -1.3548953e-38 1.9104584e-38 -3.211874e-39 1.7699752e-38 -2.3321637e-38
1.1573835e-38 7.154897e-39 9.925097e-39 7.450417e-39 4.838828e-39 5.008325e-39 6.91088e-40 4.978113e-39
-1.3075639e-38 4.250794e-39 -3.8023e-40 6.348409e-39 1.126434e-38 -1.998762e-39 4.251467e-39 6.471449e-39
3.283186e-39 -1.696448e-38 1.221487e-39 -1.3180448e-38 7.292822e-39 1.9168841e-38 -5.283278e-39 -1.5371953e-38
-2.471546e-39 3.641127e-39 5.73467e-40 -6.912098e-39 4.365939e-39 9.192084e-39 1.2138707e-38 -7.499964e-39
-1.5641714e-38 -6.17802e-39 -3.209472e-39 1.520154e-39 -1.5698172e-38 -1.2668006e-38 1.1941543e-38 4.676745e-39
-6.651971e-39 -1.983458e-38 -1.2415754e-38 -1.25167e-40 1.4548016e-38 -1.2762127e-38 -3.739236e-39 1.4669807e-38
5.831492e-39 1.0187671e-38 9.686638e-39 5.039368e-39 -5.920625e-39 1.3806238e-38 -1.317268e-39 2.781377e-39
1.631114e-38 1.0389751e-38 1.959622e-39 1.0965582e-38 -2.2007412e-38 -7.160792e-39 -1.8368523e-38 8.541044e-39
1.4809e-40 6.886398e-39 -1.2065445e-38 -1.2025508e-38 1.9348675e-38 -1.6382346e-38 -1.4946527e-38 -2.107408e-38
-1.8980666e-38 2.257754e-39 -1.6632435e-38 3.076377e-39 -9.40696e-39 -1.9539795e-38 -1.7483659e-38 -8.964588e-39
-1.0863778e-38 -1.3045326e-38 -1.570138e-39 -1.370616e-39 9.58743e-39 -4.05527e-39 -9.155746e-39 2.103325e-39
-1.1920122e-38 8.34825e-39 2.215186e-38 1.0692312e-38 -1.4571654e-38 2.2593997e-38 -1.5284194e-38 1.787758e-39
-1.940758e-38 -1.098176e-38 -2.227042e-39 -8.978164e-39 4.288527e-39 -1.4372217e-38 -6.9603e-39 -6.262333e-39
1.9077218e-38 5.106431e-39 -1.3933252e-38 1.2797874e-38 6.473466e-39 2.1030718e-38 -2.0800146e-38 2.1156996e-38
8.029037e-39 8.456899e-39 -1.9435623e-38 -4.235811e-39 1.5371967e-38 1.642421e-38 -4.145705e-39 1.311436e-39
3.060722e-39 1.8839372e-38 -1.8666488e-38 -1.3905449e-38 1.6468403e-38 1.613055e-38 -2.3017877e-38 -1.6463393e-38
-2.19113e-39 3.815091e-39 -6.108794e-39 5.849961e-39 -3.324686e-39 6.919281e-39 -1.9509285e-38 1.4679324e-38
-1.446605e-39 -9.811082e-39 6.897219e-39 -4.486181e-39 1.9518878e-38 -1.165069e-39 -9.160154e-39 -5.281769e-39
1.0874854e-38 1.3904697e-38 1.1931521e-38 7.655295e-39 -1.7424031e-38 7.547015e-39 -6.574388e-39 2.1509528e-38
1.1268973e-38 -1.6869997e-38 -1.5046025e-38 7.161668e-39 -1.2250926e-38 -3.310942e-39 -2.0617834e-38 1.7772055e-38
1.0256232e-38 1.6347765e-38 -1.580278e-39 1.5433656e-38 1.3522365e-38 9.282062e-39 1.6836238e-38 -1.5025025e-38

fc1.bias f4 [256]
00000000: 44cd af80 9e6c 0e80 6724 2600 ce29 d000
00000010: 30a6 0300 b804 bc81 efd9 5100 ebde ab00
00000020: 8980 3580 d2ae 5180 3a6d 9280 9ed9 da00
00000030: cec1 7c80 00eb 5800 54b1 1800 b6fd 1500
00000040: e454 3100 8084 2180 3180 7f00 a5b1 c600
00000050: 21af b280 01c4 0300 9fdb a800 3e4e 1e80
00000060: d1af be00 a610 6780 d4fe d480 8a1b 3a00
00000070: 573b 1000 f194 5c80 baa8 d500 bb74 2300
00000080: 9f1f a600 ed05 0380 a805 5380 3067 0500
00000090: 728a 7700 1fd1 7e00 d72c 9980 c37b 4900
000000a0: d3fb 5280 d74a af80 92e2 7980 46dd 3100
000000b0: 7faf db80 4b43 8300 e646 d680 20da 7b00
000000c0: f3a8 2700 44d4 a980 932e 0680 27a5 eb00
000000d0: 2ee4 5d00 7381 1680 391c 2b80 66c1 a300
000000e0: cfdb 4d00 7971 6580 7117 0a00 79bd 2480
000000f0: 6c3c 4800 e771 4800 7ca1 5f80 a64d 4d80
00000100: 2a0b 2980 7d70 0e80 7bb8 4800 848a 1800
00000110: ba36 1e00 a2e9 0f80 e19b 4980 1b8f a000
00000120: eadc 4480 015d 3580 f5ca 6080 6c35 e480
00000130: 0b0a 0880 0ee3 7780 14d8 2e00 31c2 5c80
00000140: 557c 4300 8bda 5000 01ad 5a80 481e f280
00000150: 0d7c 2780 709b 0580 cc5d 0200 3b94 a580
00000160: 85cd 0100 12cb c400 32f7 4480 f3c5 9000
00000170: f0bc 4500 8e33 a380 2834 7680 8abb 7380
00000180: be57 9f80 d9df 7b80 45ab be00 a9c2 4d80
00000190: 48d1 1b00 dbcc 2180 660f 3b00 f90e 1d80
000001a0: 38e4 9100 244e f180 2a05 d980 be7e 8a80
000001b0: 58ef 9a00 e466 7080 968f eb80 26a9 7880
000001c0: 0a8c 0d00 f276 7180 ac06 dc80 c208 6c00
000001d0: 6785 0a80 2ec3 cd00 bc6b cd00 6298 4780
000001e0: 5722 3f00 aa22 dd00 a073 7480 f74c 3a80
000001f0: 5cd1 3a80 3db7 0400 6800 1800 3153 a400
00000200: 1591 dd00 c60e 1e80 6982 2f80 ba91 9d80
00000210: e37f 0b00 12f9 4c80 f36b 6f00 78f4 bf80
00000220: 7240 3980 85b1 6180 bd1a cc80 e0e1 6080
00000230: 6f05 cc01 5c0e 3700 1957 1c00 b368 b580
00000240: c377 bb80 ab52 bb00 d02e ba00 838d d200
00000250: b67f 9c80 1200 7680 86f7 1f80 55f1 0000
00000260: 4e36 d380 b347 6980 fa4c d480 1c0a ec80
00000270: 63c6 bd00 d83e 8380 ce85 ab80 0311 4c00
00000280: 5e7d a701 ae1a 7f00 d516 7880 5d7e d300
00000290: 961c 3200 b28b 3280 da8a 2d00 5561 4f00
000002a0: b23a 8e80 725d 1400 69ca 0800 ed46 5a80
000002b0: a73e 6280 75f5 8d00 d81c 8f00 1313 a800
000002c0: 5c32 4980 268a 0d00 4109 5e80 c05d 6400
000002d0: 0865 1d00 a6ad e600 2771 9d01 3025 4f80
000002e0: f063 9080 a67e 7700 fbe1 5b00 6dd1 5380
000002f0: ec12 de80 f0d9 0f00 b65b 2b80 d473 6500
00000300: 8749 2200 14eb f300 7425 a680 c375 3400
00000310: 7b48 de80 7ab8 1100 00de 7380 babe 6a80
00000320: 8bed 9180 a5c8 1f80 a509 4500 c724 bd00
00000330: 3aae 7000 2c62 ab00 15e3 2300 d8c2 3d80
00000340: f954 5480 612a 8d00 dc85 0280 12c6 fc00
00000350: 40cf 6d00 697d 8c00 e413 0a80 30df ab80
00000360: 6b98 a800 df4a 8700 5c6e f380 74ae a600
00000370: c837 be00 197e 0180 b8b9 0f00 9a0e 8c80
00000380: d2d3 4480 168d 5b80 ba9b bb00 279e 5680
00000390: 9b4c a880 9601 0300 e364 6480 1885 9f00
000003a0: 1327 f900 3a4b 4c00 3050 4480 b3df 5b00
000003b0: 7637 5a80 5321 1e80 4001 4d80 5032 6200
000003c0: 4beb ad80 30b9 0300 b068 d080 9cc0 9e00
000003d0: 1618 3780 4889 7e80 5341 c980 bdcd c800
000003e0: 4ef8 8580 5c78 eb80 1029 4b00 3fc8 7d00
000003f0: f7d3 7e80 ecd8 bb80 8c30 8e80 c51d 2500
-1.6144847e-38 -1.324661e-39 3.502808e-39 1.911678e-38 3.35123e-40 -6.9067064e-38 7.516855e-39 1.5783838e-38
-4.913391e-39 -7.501389e-39 -1.3447166e-38 2.0098204e-38 -1.1457126e-38 8.165826e-39 2.267665e-39 2.01956e-39
4.530392e-39 -3.078103e-39 1.1709094e-38 1.8247155e-38 -1.6409543e-38 3.4582e-40 1.5507149e-38 -2.783133e-39
1.7511815e-38 -9.465028e-39 -1.956054e-38 5.336338e-39 1.490655e-39 -8.502296e-39 1.9621488e-38 3.256117e-39
1.5256036e-38 -2.77632e-40 -7.624375e-39 4.96194e-40 1.0978089e-38 1.1646291e-38 -1.4066916e-38 6.748389e-39
-7.620848e-39 -1.609806e-38 -1.1193373e-38 4.579317e-39 -2.017493e-38 1.205459e-38 -1.967823e-38 1.1374015e-38
3.642192e-39 -1.5596345e-38 -5.6772e-40 2.1640587e-38 8.622557e-39 -2.066819e-39 -3.959051e-39 1.5038564e-38
7.150186e-39 -9.316091e-39 9.26764e-40 -3.374048e-39 6.633831e-39 6.653016e-39 -8.782302e-39 -7.099188e-39
-3.76926e-39 -1.32605e-39 6.678335e-39 2.253742e-39 2.774697e-39 -1.461344e-39 -6.75991e-39 1.4745016e-38
-6.324063e-39 -4.900645e-39 -8.889015e-39 -2.0957657e-38 -7.38287e-40 -1.1009876e-38 4.301947e-39 -8.518528e-39
6.19758e-39 7.425238e-39 -8.327257e-39 -2.2235053e-38 -3.626085e-39 -5.14938e-40 2.17319e-40 -1.5206032e-38
1.65562e-40 1.8072605e-38 -6.333491e-39 1.3295322e-38 6.404427e-39 -1.498768e-38 -1.0855299e-38 -1.0628358e-38
-1.463332e-38 -1.1376067e-38 1.7510184e-38 -7.141164e-39 2.554634e-39 -3.10406e-39 5.423818e-39 -2.6686e-39
1.3398016e-38 -2.2160386e-38 -1.9930155e-38 -1.2718765e-38 1.4228527e-38 -1.0322486e-38 -2.163285e-38 -1.1080939e-38
1.244098e-39 -1.042008e-38 -2.0206203e-38 9.921375e-39 -9.66211e-40 1.8896294e-38 1.8864925e-38 -6.574985e-39
5.797955e-39 2.030808e-38 -1.0694396e-38 -5.354069e-39 -5.401563e-39 4.33075e-40 2.204198e-39 1.5090865e-38
2.034769e-38 -2.760365e-39 -4.36305e-39 -1.447045e-38 1.056068e-39 -7.068847e-39 1.0232465e-38 -1.7628279e-38
-5.257742e-39 -8.971725e-39 -1.8744033e-38 -8.897236e-39 7.494556e-38 5.056103e-39 2.602639e-39 -1.6659784e-38
-1.72162e-38 1.7202893e-38 1.7098195e-38 1.9336219e-38 -1.4372151e-38 -1.0836614e-38 -2.935695e-39 8.6574e-41
-1.939677e-38 -9.668448e-39 -1.9496739e-38 -2.1676804e-38 1.7428077e-38 -1.2052994e-38 -1.575187e-38 6.9856e-39
6.1526005e-38 1.1672679e-38 -1.102845e-38 1.942262e-38 4.60203e-39 -4.641888e-39 4.182408e-39 7.28992e-39
-1.3061696e-38 1.870232e-39 8.07295e-40 -8.290638e-39 -9.022354e-39 1.3036858e-38 1.3142823e-38 1.5435206e-38
-6.722057e-39 1.24342e-39 -8.635856e-39 9.217181e-39 2.699473e-39 2.1184457e-38 5.783506e-38 -7.268345e-39
-1.3260162e-38 1.0973857e-38 8.438097e-39 -7.697474e-39 -2.0394268e-38 1.455714e-39 -3.981826e-39 9.316936e-39
3.148784e-39 2.2400356e-38 -1.5258128e-38 4.817691e-39 -2.0413481e-38 1.627381e-39 -1.064072e-38 -9.802982e-39
-1.3401361e-38 -2.918878e-39 6.340109e-39 1.7370102e-38 1.0348076e-38 1.5739087e-38 3.295704e-39 -5.671862e-39
-7.744664e-39 1.2964008e-38 -2.3169e-40 2.3213599e-38 1.0084416e-38 1.2901958e-38 -9.2549e-40 -1.5783934e-38
1.548304e-38 1.242465e-38 -2.2355615e-38 1.5307274e-38 1.7468755e-38 -1.37071e-40 1.444156e-39 -1.2862208e-38
-6.3208e-39 -8.407642e-39 1.7229102e-38 -7.954587e-39 -1.5455844e-38 2.76075e-40 -9.219741e-39 1.4649589e-38
2.2881056e-38 7.006484e-39 -6.27358e-39 8.437278e-39 -8.28509e-39 -2.76702e-39 -7.071782e-39 9.017927e-39
-1.5971948e-38 3.41939e-40 -1.9139338e-38 1.4579104e-38 -5.059593e-39 -1.162052e-38 -1.8482369e-38 1.8440904e-38
-1.2303196e-38 -2.1624518e-38 6.902393e-39 1.1551272e-38 -1.1647311e-38 -1.7251055e-38 -1.3058056e-38 3.408593e-39

fc2.weight f4 [256, 260]
00000000: 5832 1280 e8a5 7e80 bdad 0980 83a6 0780
00000010: c2b4 cc80 4c5c 3980 4cab 5a00 04d8 6b00
00000020: a83c a080 dbce 5500 674f 8b00 daa6 cc00
00000030: b93c 2b80 1e45 cc00 f4d3 8b80 d759 2800
00000040: 2a5b 8280 fabc 7180 3075 9c80 4a75 a280
00000050: a27d 5300 a08e 3e00 2832 b100 dc32 a100
00000060: 64f0 0000 fee1 6700 13be dc80 714c 8b80
00000070: 62bb 9680 4fe1 7100 fdd6 da80 b01a 0b80
00000080: 84a5 2800 6c6c 3a80 0830 6300 81e0 2d80
00000090: b617 8480 b784 0a80 c28e ec00 60e9 9a80
000000a0: be65 9300 4d0e 4200 9443 7d00 bc2d 6a80
000000b0: ec32 ef80 846e ef00 3ea3 7300 b711 a700
000000c0: 4f61 6180 9304 1980 e6e7 9180 31d1 8e80
000000d0: e8d1 3f80 d417 c580 e556 5800 6caa 1b00
000000e0: 054d 4200 b200 8b00 e0e2 8700 683e 6d00
000000f0: 9b15 5080 b62f 8080 bb05 cc80 5483 8900
00000100: 6c8b 6000 7a50 2500 df62 0100 eca9 5300
00000110: c9e1 1680 6694 2280 d069 2100 ce4b c580
00000120: f55d 2180 5e3c c000 5c94 9580 2cff 5e00
00000130: fd30 0700 7f8f 2f00 2b76 8700 6194 6f80
00000140: e4e0 9400 d57c 4680 1c39 be80 c8cd a300
00000150: 888e 9400 4a08 1180 3795 7500 984e 3d80
00000160: 00c6 ad80 8e9a ef00 d70e 7180 2484 6100
00000170: 06db 4580 09af b700 7ac3 2d80 9890 6b80
00000180: 276a 3500 aa3f 5a00 6783 c500 505b 9c00
00000190: f629 0980 7cdc 8b80 088c 4f00 0d82 d500
000001a0: d6e5 4800 5af0 c080 9b57 e300 c4fe 5700
000001b0: 7ffc 7080 3672 9780 acfc 0d00 55c5 d180
000001c0: 0b7a 8700 11d9 cd00 2be9 7400 af88 3080
000001d0: b5f1 1a80 f139 b700 83a1 9900 5ee6 5200
000001e0: 8546 bd00 4b31 3e80 c01f d280 37aa dd00
000001f0: 17ca 9c00 c71e 3080 c192 c900 005a f000
00000200: 569d cf80 aaac 6880 082d 2900 24c2 e000
00000210: 79f2 0f80 acf4 2100 5485 e580 f0b1 2900
00000220: dccb ec00 8293 8c80 bbde 1380 780c 9580
00000230: ffa9 0980 e8a4 4f80 812f 4880 1b29 ac00
00000240: 7b0f a700 cb0d 6700 af38 4100 3af0 0380
00000250: ae90 0500 651b 8500 6f34 0780 9bda 4280
00000260: eade 8500 9256 bb80 3e10 5680 88ff 2880
00000270: aa1a 3b80 f5ed 4b80 b22a 3380 05e2 7200
00000280: 8086 f800 7330 8880 5fea e500 86a0 2e00
00000290: 70a4 7380 eed1 a780 4280 0a80 4c45 bb80
000002a0: 8059 2f80 67c5 4b00 7e00 3400 cef7 c400
000002b0: a6ed 5200 b81d 6500 12fc 5200 be96 8900
000002c0: 284b 7080 60c3 9380 8394 3800 2d3c f600
000002d0: 3ad0 9e00 2cd4 c980 93c3 7e80 5421 8b80
000002e0: 608e 0680 2888 d600 b030 3000 085d 6c80
000002f0: 5f36 a500 9b59 3a80 68f7 0700 3c10 8080
00000300: 2620 4800 9cee b300 50c5 ef00 58d7 2c00
00000310: f500 cf00 ca91 2b00 97e0 2480 5314 ad00
00000320: c4a6 2380 b19a 6a00 b975 6500 a801 b000
00000330: 0c65 8000 c976 5080 acf6 b600 bb30 1f00
00000340: 7a1b 2980 bd2c 3b00 0a6f 4780 1963 1000
00000350: 2676 2e00 6e14 c781 f834 8f00 d5a8 9000
00000360: 0ff9 3800 f684 c180 9e20 e680 38f6 9080
00000370: 48b7 3580 0f3f 6a80 abcc 9500 0681 6780
00000380: c9ec d500 bb71 e380 ce3e c180 8ad7 7000
00000390: 3c76 f580 e97b 3480 3d0d 2800 4367 1480
000003a0: 9c9d e800 fe35 e180 d725 9180 a0cb 2480
000003b0: def8 e600 c8fc 2680 cc67 8400 15a2 7900
000003c0: 48d8 7680 430a 3c80 a8e3 ce00 1a17 a700
000003d0: f056 d000 5e8b 1a80 7d8a 6a00 d613 c380
000003e0: a6e1 d180 a134 ed00 b119 e380 be65 8600
000003f0: 7008 3980 2fab f180 1a6c 1780 49e3 d600
-1.671099e-39 -1.1630788e-38 -8.88845e-40 -7.02582e-40 -1.8799285e-38 -5.267733e-39 8.326644e-39 9.90389e-39
-1.4715439e-38 7.880223e-39 1.2793618e-38 1.8794296e-38 -3.97071e-39 1.8759236e-38 -1.2841168e-38 3.705648e-39
-1.1971318e-38 -1.0445203e-38 -1.4368376e-38 -1.4919426e-38 7.667415e-39 5.744965e-39 1.6272875e-38 1.480376e-38
8.6236e-41 9.540127e-39 -2.0271995e-38 -1.2792556e-38 -1.3842545e-38 1.0458237e-38 -2.0097261e-38 -1.019764e-39
3.732796e-39 -5.365353e-39 9.108944e-39 -4.213134e-39 -1.2130791e-38 -9.65964e-40 2.1724389e-38 -1.4226386e-38
1.3536316e-38 6.066273e-39 1.150368e-38 -9.750969e-39 -2.1966951e-38 2.1988329e-38 1.0619642e-38 1.5342883e-38
-8.942951e-39 -2.297528e-39 -1.3399336e-38 -1.3115684e-38 -5.860936e-39 -1.810014e-38 8.112696e-39 2.540694e-39
6.088772e-39 1.2765383e-38 1.247918e-38 1.0032456e-38 -7.35459e-39 -1.1772059e-38 -1.8736497e-38 1.2628575e-38
8.866223e-39 3.426783e-39 1.27304e-40 7.683303e-39 -2.101377e-39 -3.175642e-39 3.06853e-39 -1.8118786e-38
-3.064277e-39 1.7654071e-38 -1.373671e-38 8.724075e-39 6.60422e-40 4.367745e-39 1.2440183e-38 -1.0246968e-38
1.3672329e-38 -6.473266e-39 -1.7469231e-38 1.5043006e-38 1.3642784e-38 -1.564177e-39 1.0798281e-38 -5.63016e-39
-1.595857e-38 2.2004127e-38 -1.0382735e-38 8.955446e-39 -6.41522e-39 1.6868687e-38 -4.202721e-39 -9.878269e-39
4.905362e-39 8.288033e-39 1.8138731e-38 1.4359094e-38 -8.41572e-40 -1.2844229e-38 7.305238e-39 1.9607614e-38
6.694605e-39 -1.7718637e-38 2.0878085e-38 8.081081e-39 -1.0376154e-38 -1.3908131e-38 1.284503e-39 -1.9264408e-38
1.2441573e-38 1.8904145e-38 1.0736562e-38 -4.457137e-39 -2.474431e-39 1.6826681e-38 1.410877e-38 7.613151e-39
1.7382206e-38 -5.711484e-39 -1.9296844e-38 2.0356706e-38 1.4398834e-38 -4.419145e-39 1.851158e-38 2.2072805e-38
-1.9066389e-38 -9.612832e-39 3.78141e-39 2.0640796e-38 -1.464515e-39 3.118343e-39 -2.1078158e-38 3.829087e-39
2.1746308e-38 -1.2909885e-38 -1.824775e-39 -1.3687962e-38 -8.87503e-40 -7.314161e-39 -6.629197e-39 1.5810451e-38
1.5342081e-38 9.464004e-39 5.989641e-39 -3.61684e-40 5.11079e-40 1.2223948e-38 -6.61658e-40 -6.139564e-39
1.2294087e-38 -1.7204293e-38 -7.903679e-39 -3.765087e-39 -5.42786e-39 -6.973025e-39 -4.698926e-39 1.0550327e-38
2.2823453e-38 -1.2507008e-38 2.1114405e-38 4.282018e-39 -1.0620071e-38 -1.5411836e-38 -9.64365e-40 -1.7198097e-38
-4.348375e-39 6.958477e-39 4.775622e-39 1.8088653e-38 7.615763e-39 9.286046e-39 7.620936e-39 1.2635539e-38
-1.0312537e-38 -1.3569905e-38 5.196064e-39 2.2613119e-38 1.4584706e-38 -1.8535048e-38 -1.1641431e-38 -1.277709e-38
-6.02088e-40 1.970164e-38 4.42557e-39 -9.951607e-39 1.5172362e-38 -5.358603e-39 7.31601e-40 -1.1760767e-38
6.623688e-39 1.6524151e-38 2.2019466e-38 4.118013e-39 1.9010291e-38 4.001226e-39 -3.386646e-39 1.5894832e-38
-3.274067e-39 9.790055e-39 9.317616e-39 1.6163641e-38 1.1791192e-38 -7.389452e-39 1.680255e-38 2.864382e-39
-3.775112e-39 5.434343e-39 -6.560154e-39 1.504917e-39 4.266816e-39 -7.313037e-38 1.3151478e-38 1.3284877e-38
5.232133e-39 -1.7771948e-38 -2.1133865e-38 -1.3312638e-38 -4.93303e-39 -9.757184e-39 1.375691e-38 -9.505341e-39
1.9645903e-38 -2.0887456e-38 -1.7746781e-38 1.0362896e-38 -2.2542111e-38 -4.819896e-39 3.678169e-39 -1.873753e-39
2.1362375e-38 -2.0682355e-38 -1.3329721e-38 -3.379125e-39 2.1211441e-38 -3.58043e-39 1.2159521e-38 1.1170239e-38
-1.0914176e-38 -5.513811e-39 1.899978e-38 1.5344815e-38 1.913297e-38 -2.437718e-39 9.784243e-39 -1.7915038e-38
-1.9274566e-38 2.1783892e-38 -2.0855874e-38 1.2342455e-38 -5.23765e-39 -2.2193764e-38 -2.150996e-39 1.9734331e-38

fc2.bias f4 [256]
00000000: bd15 5700 4656 2b80 0f71 0900 c68a 5500
00000010: 6d29 3500 d314 5a80 7a2a 5200 8a20 0180
00000020: ae43 7a00 d05a 5200 839a bf00 ed90 8c80
00000030: d244 8d00 704c 6880 bf81 2080 5618 cf80
00000040: b085 7a80 6fc2 ce80 21d8 9e80 4aa7 1600
00000050: 8d65 5380 def5 0600 bc37 5500 ae33 b780
00000060: a7a6 3b00 5b37 9600 9838 af00 6f1c af00
00000070: 6662 1800 7724 4400 b669 5f80 94aa 1700
00000080: 38ab eb00 b754 a580 f5d5 c080 10e6 da00
00000090: fc59 4580 8e6b 3100 3baf 2180 d9c1 ca80
000000a0: d632 2b00 d7cf b480 8ce4 ec80 9161 8900
000000b0: 2fc9 f880 c0f8 0080 30cf 5500 3f67 c500
000000c0: 243d 3e00 a0a2 4d00 8a0a 9f80 fd14 3100
000000d0: fe04 9700 77d2 1980 28d2 1880 4360 3280
000000e0: 337d 1e00 a0c7 2900 7403 0700 ebf3 1f80
000000f0: 86b1 0800 ed25 3a80 18b5 b900 b5cd 8700
00000100: 2cb9 3600 480c 2d00 9df5 7100 0263 a900
00000110: 8dd4 2d00 c8ea 0f80 5601 0400 42f4 3500
00000120: bbf5 d000 0952 a580 6aea 1280 f2bb 3b80
00000130: 00d0 cc00 556c e280 f950 2a00 6099 6200
00000140: c7ce bd00 4f19 cb80 0c85 7f80 917f 5380
00000150: eef5 3100 4a0d 0c00 6dc0 7900 a7c4 3c00
00000160: a5fc 7380 e001 0000 636f 4f00 c34f ce00
00000170: c8d3 9600 061f 7500 e0e4 9d00 ebfd 4e00
00000180: 4f48 5800 deaf 9881 763b 9a80 673d 0380
00000190: 308e df00 afd6 4200 87a1 5f80 e9dd 9900
000001a0: 45ea 4d80 cff1 7980 482f 3700 f097 1580
000001b0: daf7 0c80 b678 1c80 5977 ea80 18d2 8400
000001c0: 9003 7700 4ea0 2980 7209 b700 de94 5f80
000001d0: af9e ad00 a8f7 bb80 796f c080 f3ff 4880
000001e0: 779f 0b00 8bcc bb00 45b0 5080 d292 8a80
000001f0: 1c2e 8400 b9c5 6280 dea8 1780 1dc6 6700
00000200: f29b 4b00 01af 5300 423b 2400 690f 8600
00000210: d462 2d00 ec6f 2d80 28c0 c100 16f1 9a00
00000220: 7bdf 5900 6245 6600 f3ef 8280 d14d 9480
00000230: d07a 1a80 c332 8d80 8523 9f00 e36b d200
00000240: 6ad0 8300 3bc8 8000 c66c ea80 8fe9 7880
00000250: 4ea0 2080 ce31 a480 fea2 3a00 1007 7400
00000260: 5570 a480 1ce1 e380 a9d1 5d80 b3c2 4480
00000270: 0108 2180 ff47 8480 5177 4000 4880 6c00
00000280: 404f a200 f13e a680 9f20 b600 6d56 2980
00000290: 400c 7800 1ac3 8c00 30d1 c000 84eb 1100
000002a0: e21d cf00 a8e8 3f00 4011 3900 d3a1 8700
000002b0: 247a 9800 3987 1000 bf89 0180 c52c 9680
000002c0: 9793 0680 43c8 9480 c74f be81 6516 3900
000002d0: 50ba 1d00 e18a 0580 cab2 a380 128a 3000
000002e0: a476 3b80 35af a480 c054 1500 cf77 f700
000002f0: 02c5 8380 c4dc 3800 78b7 e100 4fa2 a380
00000300: 2924 8680 3055 0800 caac 7a00 fa0a 3b80
00000310: 578f ab80 2e28 8480 ba94 b680 0c6c 1580
00000320: 5ff5 7300 4fbc 3580 2523 3a00 fef8 5400
00000330: f3c3 1200 a3bc bc00 bf16 a080 e3ed 5480
00000340: 8221 3780 a8e4 7500 17ce 5a00 a555 d780
00000350: 51a8 b680 5b02 8980 7823 cc00 8aa5 4c80
00000360: 1d3e 0d00 a346 6700 bb3b 1100 a8bf bc80
00000370: ba3b a300 1f88 0980 033d dd00 deee 1b00
00000380: 15d2 8c00 954b ae80 13c8 2700 b3f4 a780
00000390: 5922 9380 3e65 6700 ccfb f680 8a42 0c80
000003a0: 8652 2480 66cc 9c00 6015 e980 e87d 1000
000003b0: 68ad cb80 b3e8 7b00 d31b 3100 1417 2480
000003c0: 3c01 2080 2edb 3680 dd15 2300 aee4 8980
000003d0: d021 6d80 8426 2300 410d 4580 93a5 b600
000003e0: bd7d 8d80 f81e 3100 1bbb a380 54b2 6480
000003f0: 5b6b 1580 f6bf e080 1d04 5a80 9497 0280
7.997486e-39 -3.979875e-39 8.67077e-40 7.8558e-39 4.882142e-39 -8.272665e-39 7.545748e-39 -1.03508e-40
1.122821e-38 7.563088e-39 1.7596008e-38 -1.2908959e-38 1.2973493e-38 -9.578312e-39 -2.98528e-39 -1.9018678e-38
-1.1251889e-38 -1.8987862e-38 -1.4587541e-38 2.080393e-39 -7.658776e-39 6.39214e-40 7.826011e-39 -1.6824435e-38
5.478078e-39 1.3795182e-38 1.6091514e-38 1.6081412e-38 2.23935e-39 6.257895e-39 -8.762294e-39 2.173408e-39
2.1642763e-38 -1.5183247e-38 -1.7709169e-38 2.0102669e-38 -6.36893e-39 4.538523e-39 -3.093432e-39 -1.862031e-38
3.967163e-39 -1.6604948e-38 -2.1755164e-38 1.2616463e-38 -2.2847374e-38 -8.9235e-41 7.880342e-39 1.812863e-38
5.715734e-39 7.129672e-39 -1.4605625e-38 4.507468e-39 1.3868951e-38 -2.371388e-39 -2.279442e-39 -4.626307e-39
2.799978e-39 3.836867e-39 6.44087e-40 -2.934402e-39 7.98367e-40 -5.340064e-39 1.7054531e-38 1.2471586e-38
5.025544e-39 4.137003e-39 1.046552e-38 1.5555716e-38 4.208846e-39 -1.461756e-39 3.67821e-40 4.954904e-39
1.9189935e-38 -1.5182286e-38 -1.737131e-39 -5.485716e-39 1.8809058e-38 -2.0793684e-38 3.886138e-39 9.054899e-39
1.7431087e-38 -1.8651685e-38 -1.1710836e-38 -7.668108e-39 4.588162e-39 1.106793e-39 1.1181124e-38 5.580675e-39
-1.0651714e-38 6.73e-43 7.294962e-39 1.8946725e-38 1.3851297e-38 1.0755882e-38 1.4500278e-38 7.254257e-39
8.107463e-39 -5.608834e-38 -1.4163997e-38 -2.97533e-40 2.0530323e-38 6.138157e-39 -8.782317e-39 1.4130437e-38
-7.155373e-39 -1.119884e-38 5.067914e-39 -1.98305e-39 -1.190938e-39 -2.614697e-39 -2.153232e-38 1.2197653e-38
1.0929702e-38 -3.822762e-39 1.6809284e-38 -8.777776e-39 1.5944466e-38 -1.726208e-38 -1.7672404e-38 -6.703973e-39
1.067396e-39 1.7246614e-38 -7.410073e-39 -1.2725968e-38 1.2138826e-38 -9.070808e-39 -2.172795e-39 9.530126e-39
6.943605e-39 7.685126e-39 3.327336e-39 1.2311485e-38 4.16805e-39 -4.172747e-39 1.7793183e-38 1.4229152e-38
8.253529e-39 9.39211e-39 -1.2024692e-38 -1.3619569e-38 -2.43178e-39 -1.2967015e-38 1.4614586e-38 1.9324157e-38
1.2105215e-38 1.1826773e-38 -2.1528527e-38 -1.1104045e-38 -2.996242e-39 -1.5078888e-38 5.38493e-39 1.0655451e-38
-1.5101319e-38 -2.0927412e-38 -8.615913e-39 -6.314659e-39 -3.033443e-39 -1.2148113e-38 5.920274e-39 9.964252e-39
1.490578e-38 -1.5267271e-38 1.6725763e-38 -3.796259e-39 1.1024654e-38 1.2926959e-38 1.7707458e-38 1.64569e-39
1.9020668e-38 5.869098e-39 5.240811e-39 1.2455844e-38 1.4002811e-38 1.517877e-39 -1.4125e-40 -1.3791385e-38
-6.03958e-40 -1.3663494e-38 -6.990945e-38 5.242657e-39 2.730066e-39 -5.08998e-40 -1.5033323e-38 4.457634e-39
-5.460855e-39 -1.5123874e-38 1.958948e-39 2.2726347e-38 -1.2101123e-38 5.221984e-39 2.0728803e-38 -1.5027411e-38
-1.2318928e-38 7.65243e-40 1.1265916e-38 -5.422232e-39 -1.575529e-38 -1.2136699e-38 -1.6767413e-38 -1.967305e-39
1.0649105e-38 -4.934834e-39 5.339066e-39 7.803503e-39 1.723332e-39 1.7332743e-38 -1.4701839e-38 -7.79952e-39
-5.062973e-39 1.082678e-38 8.339126e-39 -1.9775355e-38 -1.6774441e-38 -1.2582308e-38 1.8747165e-38 -7.038882e-39
1.216143e-39 9.484396e-39 1.58263e-39 -1.7333827e-38 1.4990612e-38 -8.7535e-40 2.0317532e-38 2.565248e-39
1.2932333e-38 -1.600649e-38 3.653357e-39 -1.542431e-38 -1.351214e-38 9.495375e-39 -2.268186e-38 -1.125896e-39
-3.335682e-39 1.4399662e-38 -2.1405339e-38 1.514535e-39 -1.8704812e-38 1.1379243e-38 4.509921e-39 -3.314357e-39
-2.939179e-39 -5.037744e-39 3.222085e-39 -1.2663498e-38 -1.0022199e-38 3.228059e-39 -6.341404e-39 1.6773457e-38
-1.2993911e-38 4.511049e-39 -1.5036307e-38 -9.247522e-39 -1.967057e-39 -2.0640014e-38 -8.26667e-39 -2.38047e-40

fc3.weight f4 [128, 256]
00000000: 706d 5700 fc2f 8e80 11e2 b500 72ba 0380
00000010: 20d9 5980 393a fd00 32c5 1b80 79da 9980
00000020: e778 bd00 8cf1 e180 f83e 1380 daf0 b280
00000030: 9de8 4480 8deb 4400 5680 9080 b084 0600
00000040: dcc1 a101 c515 9580 30c7 7700 bb45 0d00
00000050: eeec 7a80 4780 9300 c0eb 8600 3790 0d00
00000060: 3eac b780 6908 cd00 29c7 5b00 6a0f f380
00000070: dbf5 bd80 c00c 7b80 2656 7b00 937f 3780
00000080: 2b72 3600 6084 5500 25ea a780 2ba3 ba00
00000090: 796a 8e00 c8b4 7700 18ed d700 0aa3 3180
000000a0: 72b7 b300 5108 6900 32e5 4a00 f29c e480
000000b0: 3e5b 5480 8c46 5a00 3ae8 d280 91bf 3080
000000c0: 7098 1480 b626 0c80 1fa1 d880 a274 8100
000000d0: 3021 a980 697d 1c80 ee41 7200 9d03 dc80
000000e0: fdae 5d80 5458 bd80 4866 1500 0460 9100
000000f0: c8b9 6500 c863 b900 8b41 6a00 c64f a180
00000100: c920 6880 7966 d080 48a4 2f00 83bd 4a00
00000110: ce92 c380 5c18 8180 d355 3e80 964d 4200
00000120: f530 e800 9381 1d80 2c3d 7780 5449 3400
00000130: d056 4480 3ef7 0500 4808 8380 6c4a 2800
00000140: 50cc 1980 9790 d280 95a5 9600 09d6 d980
00000150: 1484 c700 4265 5280 1c4a 1700 2790 4700
00000160: 1abf 8500 7200 6700 5e67 3900 728a 0000
00000170: 0ebe 4b00 ec5c 1480 908d 4900 e02f 4980
00000180: d2c8 e180 89ed 7580 4368 5880 8f35 2a00
00000190: 5df4 b381 89f0 5c80 b8ce 6980 e8c7 6a00
000001a0: 8dc0 cc80 e778 c800 a82b 3980 868f 9b80
000001b0: 068e 0f80 c6c2 d000 94db b480 6114 3b00
000001c0: a4eb ba80 2171 5780 f64e 6480 4f00 d500
000001d0: 06d1 4b00 9605 d300 b32b af80 cce1 8400
000001e0: c6ed 3e80 e01e 2180 b781 6000 4702 b400
000001f0: e1c2 a400 75d8 9c00 bfd5 2c00 043c e780
00000200: b6d1 1f00 caff 5680 fa77 7100 fdfd bb80
00000210: 94bd 9000 f3aa 9e80 9d99 d000 50c0 1b00
00000220: edb5 4b00 d790 5d80 9de1 dc00 55dc 5a80
00000230: 6af5 0400 8126 3380 3ffb f600 bb28 4980
00000240: 9aa2 9b80 37b7 ca80 f66c 1380 7312 c180
00000250: 27b2 3280 3e41 d400 583c 4b00 05d3 5480
00000260: 3a86 3f00 7a87 9f80 8848 8981 f3b0 0980
00000270: aee7 1400 dba4 8680 4c5e 0400 3c40 a280
00000280: e818 1080 974d 6f80 7400 3080 9a89 4680
00000290: b1df 8380 0766 a800 f8ac 0d00 e63b 1500
000002a0: a165 a401 474a 4d00 0c9e 9580 370e 8300
000002b0: 959a 3f80 93c5 a800 02e3 3580 31fa c480
000002c0: 8afa 4700 ef1b 8600 4043 e980 df63 b600
000002d0: dd18 8b80 2870 8980 1c60 3200 76a8 8e00
000002e0: 94d8 6500 5068 8d80 def2 4c80 faad b180
000002f0: 8153 1200 570b 0580 7b1a 8c80 fa6a ab00
00000300: 14fa 8c81 0076 9980 ad1b 1500 a31d c800
00000310: 6daf 7380 a351 3f80 bd9a 4e00 f385 d900
00000320: 78dd 4d80 0343 0500 d3fd da00 9073 7280
00000330: 7aa6 9700 ec9e ca00 bfec 4c80 4e89 e300
00000340: 8c80 1380 2225 1500 3ece 5980 c058 b980
00000350: bcf5 ca80 88d7 b200 702f 7801 1157 ab00
00000360: 1376 7780 4edf b800 5dfd 2180 d378 7300
00000370: dc01 a700 5a21 b300 6f69 7f00 bb83 2080
00000380: 937c c700 77e3 ed80 eece 7080 d0f1 1e00
00000390: 9cda 3600 016c e100 54c3 3500 0eb1 5180
000003a0: cf51 c700 cd7d da00 6422 b400 e48f d680
000003b0: 44bc e480 a958 d300 fef7 b380 9806 8d80
000003c0: 238b 3780 dd9d 1b00 0346 8b80 5490 6700
000003d0: 6607 d080 189b 6780 271a 0d80 7b79 f380
000003e0: 64bc ec00 fc32 4f80 d485 0e80 8d0f 1c00
000003f0: c808 6c01 a40a c800 e142 7280 fe1b 6480
8.028947e-39 -1.3057854e-38 1.6703322e-38 -3.4239e-40 -8.251249e-39 2.3255267e-38 -2.550299e-39 -1.4129204e-38
1.740028e-38 -2.0749637e-38 -1.767463e-39 -1.643312e-38 -6.32826e-39 6.329313e-39 -1.327035e-38 5.98612e-40
5.9420234e-38 -1.3691298e-38 1.0999879e-38 1.218876e-39 -1.1288925e-38 1.3545835e-38 1.2390528e-38 1.245596e-39
-1.6867685e-38 1.8829294e-38 8.428475e-39 -2.2321555e-38 -1.7445105e-38 -1.130034e-38 1.132667e-38 -5.096717e-39
5.000073e-39 7.853504e-39 -1.5420523e-38 1.7139936e-38 1.3078836e-38 1.0993276e-38 1.9829685e-38 -4.558427e-39
1.6504362e-38 9.64571e-39 6.878047e-39 -2.0994794e-38 -7.746913e-39 8.290502e-39 -1.9368761e-38 -4.476825e-39
-1.891394e-39 -1.115913e-39 -1.9894267e-38 1.1888619e-38 -1.5532104e-38 -2.616383e-39 1.0492898e-38 -2.0205105e-38
-8.603475e-39 -1.7388595e-38 1.965237e-39 1.3350591e-38 9.342031e-39 1.7025362e-38 9.758075e-39 -1.4814132e-38
-9.562653e-39 -1.9138543e-38 4.375201e-39 6.863811e-39 -1.7960585e-38 -1.1855518e-38 -5.724589e-39 6.088975e-39
2.1323398e-38 -2.709712e-39 -1.0950368e-38 4.801751e-39 -6.275956e-39 5.47871e-40 -1.2033421e-38 3.700117e-39
-2.369181e-39 -1.9337323e-38 1.3834724e-38 -2.0005084e-38 1.8322644e-38 -7.566835e-39 2.138802e-39 6.572032e-39
1.2282675e-38 9.459216e-39 5.271704e-39 4.9665e-41 6.955841e-39 -1.870044e-39 6.754774e-39 -6.721166e-39
-2.0735027e-38 -1.0829965e-38 -8.118926e-39 3.876304e-39 -6.610486e-38 -8.535153e-39 -9.716884e-39 9.806275e-39
-1.8803515e-38 1.8410471e-38 -5.250284e-39 -1.4285988e-38 -1.428481e-39 1.9171655e-38 -1.6609159e-38 5.425605e-39
-1.7165934e-38 -8.030271e-39 -9.211875e-39 1.9561071e-38 6.962646e-39 1.9379294e-38 -1.6086888e-38 1.2203286e-38
-5.779098e-39 -3.041647e-39 8.86274e-39 1.6531206e-38 1.5130931e-38 1.4403988e-38 4.11744e-39 -2.1235529e-38
2.92213e-39 -7.989612e-39 1.042045e-38 -1.7264352e-38 1.3292319e-38 -1.4571333e-38 1.9156889e-38 2.548547e-39
6.952925e-39 -8.59266e-39 2.0284744e-38 -8.344235e-39 4.5538e-40 -4.697423e-39 2.2681662e-38 -6.718603e-39
-1.4292832e-38 -1.8616495e-38 -1.783962e-39 -1.7730869e-38 -4.655684e-39 1.949253e-38 6.90931e-39 -7.789881e-39
5.833788e-39 -1.4650444e-38 -5.042993e-38 -8.89997e-40 1.919821e-39 -1.2365095e-38 4.0117e-40 -1.4900393e-38
-1.478303e-39 -1.0221574e-38 -4.408266e-39 -6.477847e-39 -1.2110695e-38 1.5464964e-38 1.255911e-39 1.950033e-39
6.0389916e-38 7.097979e-39 -1.3740185e-38 1.203555e-38 -5.84109e-39 1.549924e-38 -4.948716e-39 -1.8089509e-38
6.610197e-39 1.2315977e-38 -2.1421795e-38 1.6749887e-38 -1.2774053e-38 -1.2621697e-38 4.626252e-39 1.3101073e-38
9.353079e-39 -1.2986225e-38 -7.066622e-39 -1.6317294e-38 1.682994e-39 -4.63245e-40 -1.2866469e-38 1.5742246e-38
-5.178672e-38 -1.4093161e-38 1.938474e-39 1.8377731e-38 -1.0624013e-38 -5.814922e-39 7.218678e-39 1.9976355e-38
-7.150781e-39 4.83217e-40 2.0111193e-38 -1.0510703e-38 1.392688e-38 1.860778e-38 -7.064426e-39 2.0895913e-38
-1.790988e-39 1.941866e-39 -8.247345e-39 -1.7021404e-38 -1.8638923e-38 1.6424036e-38 4.558444e-38 1.5735103e-38
-1.0970781e-38 1.6977838e-38 -3.121461e-39 1.0604426e-38 1.5337195e-38 1.6450518e-38 1.170093e-38 -2.985992e-39
1.8319953e-38 -2.1846612e-38 -1.0359808e-38 2.841811e-39 5.037539e-39 2.0701731e-38 4.937352e-39 -7.50219e-39
1.8304611e-38 2.0065267e-38 1.6542726e-38 -1.9704414e-38 -2.100603e-38 1.9409095e-38 -1.6527517e-38 -1.295117e-38
-5.100865e-39 2.536189e-39 -1.279025e-38 9.510831e-39 -1.9104437e-38 -9.514693e-39 -1.203243e-39 -2.2359605e-38
2.1740759e-38 -7.273294e-39 -1.333705e-39 2.576972e-39 4.3352654e-38 1.8370916e-38 -1.0493238e-38 -9.193591e-39

fc3.bias f4 [128]
00000000: 3766 6380 143b 1480 3312 7080 a9a8 c380
00000010: 3458 e880 f20b 0280 963b 8380 fa57 2180
00000020: fe60 9780 6fad 3880 fe11 db80 83b9 6b8d
00000030: 0adb 2580 d998 3d80 ef2a 5380 cdf5 6280
00000040: 557b 1780 93ca 4280 943b 4328 e430 a480
00000050: 29a0 94a1 e56b 9a80 4753 7f80 9c68 5480
00000060: 4fe6 2c80 8050 7780 16e9 be80 0107 6680
00000070: a2dc 1680 22bd e080 5fe5 3d8b e61f 9e80
00000080: 0991 c080 31b6 9a80 3fea 6f80 cba5 8f2f
00000090: 38a1 e880 f627 8922 1bfe b780 e8a6 3980
000000a0: a685 b180 703b 7bb6 e806 4780 f23c 8180
000000b0: e771 2980 3ef9 c880 0990 9380 45b4 0b80
000000c0: 5241 d380 fc73 c880 c54d 4f80 c42e 0280
000000d0: a902 3080 6d49 6080 bb82 6380 06ff 5080
000000e0: 5535 7580 b21c 9680 30a6 6e80 2297 7180
000000f0: 95ef 1300 77ec c180 6376 3f80 086e 6980
00000100: 2790 b180 85ea c4aa 680a 0496 33c9 8780
00000110: c8b2 c980 02bc 2480 1340 8b80 5acb d780
00000120: 389a 5b80 e184 6080 f514 0880 c962 469a
00000130: 66ce c080 c99b 8f80 2c0d 7580 0080 5580
00000140: 7469 0900 4d95 cf80 7e22 8c80 6f69 c680
00000150: d2c7 6280 31d8 7580 fcf8 3380 93f7 e680
00000160: 16f2 e780 8ece 0880 c089 b8aa 2ab2 6880
00000170: fef8 5a80 a2cd 1480 a029 a280 e570 0d80
00000180: 2e31 8683 5599 9e80 b6a4 d680 277d 3680
00000190: 272b e780 0430 1580 c06e 3180 3572 6280
000001a0: 8de6 6880 89f2 7d80 905e 8680 3bb8 8080
000001b0: bee0 5380 0bd4 d880 f3d3 7380 2d72 2680
000001c0: 0343 5c80 23a2 a380 a3e8 d080 e67c 5480
000001d0: 0ebd 39b0 8792 5080 0bd3 0b80 5543 b480
000001e0: 7e94 7d80 fe10 6c80 e8c3 0328 2cce da80
000001f0: 7db9 1880 b07c d180 8b95 b398 3214 2580
-9.128382e-39 -1.857903e-39 -1.0292104e-38 -1.7968426e-38 -2.1337476e-38 -1.87956e-40 -1.2051825e-38 -3.062131e-39
-1.3901954e-38 -5.205004e-39 -2.0118428e-38 -7.2638268e-31 -3.47649e-39 -5.656797e-39 -7.637748e-39 -9.088055e-39
-2.15646e-39 -6.133813e-39 1.08375934e-14 -1.507856e-38 -1.0071264e-18 -1.4181372e-38 -1.1692982e-38 -7.751708e-39
-4.123381e-39 -1.0957302e-38 -1.753236e-38 -9.369733e-39 -2.099529e-39 -2.0638999e-38 -3.6572636e-32 -1.4521451e-38
-1.7684444e-38 -1.4208024e-38 -1.0277772e-38 2.6129351e-10 -2.136367e-38 3.7176235e-18 -1.6897052e-38 -5.294498e-39
-1.6302827e-38 -3.7436512e-06 -6.522798e-39 -1.1868642e-38 -3.806116e-39 -1.845651e-38 -1.3551488e-38 -1.074859e-39
-1.9400722e-38 -1.8408707e-38 -7.282903e-39 -2.00447e-40 -4.409058e-39 -8.842548e-39 -9.138611e-39 -7.438325e-39
-1.0763885e-38 -1.3785618e-38 -1.0161521e-38 -1.0431627e-38 1.83082e-39 -1.7809078e-38 -5.828105e-39 -9.682199e-39
-1.6306595e-38 -3.4979325e-13 -1.0666159e-25 -1.2469969e-38 -1.852307e-38 -3.373522e-39 -1.278812e-38 -1.981758e-38
-8.412353e-39 -8.863876e-39 -7.42202e-40 -4.1025238e-23 -1.7706457e-38 -1.3188361e-38 -1.0749478e-38 -7.851935e-39
8.64349e-40 -1.9063507e-38 -1.2869343e-38 -1.822125e-38 -9.07156e-39 -1.0822308e-38 -4.772929e-39 -2.1210977e-38
-2.1300844e-38 -8.08782e-40 -3.278055e-13 -9.614805e-39 -8.354516e-39 -1.910477e-39 -1.4892283e-38 -1.23436e-39
-7.887103e-37 -1.4565014e-38 -1.9711883e-38 -5.004013e-39 -2.122948e-38 -1.94577e-39 -4.539669e-39 -9.040848e-39
-9.633598e-39 -1.1566442e-38 -1.2339879e-38 -1.1821033e-38 -7.702968e-39 -1.9912534e-38 -1.0637115e-38 -3.530707e-39
-8.472905e-39 -1.502735e-38 -1.9185238e-38 -7.758987e-39 -6.757127e-10 -7.399404e-39 -1.085898e-39 -1.6554543e-38
-1.1532706e-38 -9.924329e-39 7.314441e-15 -2.0094099e-38 -2.270593e-39 -1.9238348e-38 -4.6421415e-24 -3.405158e-39

fc4.weight f4 [1, 128]
00000000: b40f 3d00 ec4e 1080 5d23 ab00 a8cb b980
00000010: 4958 1980 04b6 d480 e9fb 4200 c37f 1400
00000020: 00d8 4200 c4ba 1980 2502 6100 29d5 6b0d
00000030: f485 8800 aecf eb00 e375 7200 ce30 0700
00000040: 8057 3600 2344 c480 bfd5 5228 6858 4480
00000050: 260b cda0 d0c3 a600 eef3 d800 17b8 5200
00000060: ba79 7000 fada 4480 445d 8800 3cc7 b980
00000070: 49f9 d280 6d28 6880 6f91 f30a a39b a680
00000080: 2e2a 8a80 77fa 4f00 d76f 1780 8b58 b72f
00000090: b407 cc80 e027 89a2 5e66 0c80 0b34 0700
000000a0: cd64 6580 60b6 f5b5 8ef3 2480 2b50 cc80
000000b0: 12cb 2800 cff9 9200 73a8 6480 664d dd80
000000c0: 3020 3980 48c8 c880 e5b9 8300 ae34 3000
000000d0: 123f 2600 4e22 bb80 ebac 6100 aeac 6800
000000e0: 33c4 1500 c701 1000 2969 9000 aaa9 7800
000000f0: 6555 1400 af6a a100 8d7f 1580 32ad 6680
00000100: 8372 3200 a2e3 c4aa 1bae 5895 8c93 9f80
00000110: 88c3 c500 7ce9 3b80 be40 3300 94d7 a080
00000120: b3f8 6500 ae0f 9a00 f5f5 c280 6b10 a299
00000130: 693a 4900 1451 dd80 569c 7480 7641 f300
00000140: bc3e 0780 1eab 8f00 6557 d100 bf89 b200
00000150: 9425 6180 161d 4a00 b55d 8680 ce8c 0500
00000160: f2ed b200 0ad5 3180 9692 b82a 7faa 8c00
00000170: a230 6300 522d 1a00 3232 2580 740a 2c80
00000180: e37b 2903 9741 7800 722a 8980 8346 0400
00000190: a792 b280 de5a 8900 ae07 ad80 7f97 9780
000001a0: b459 3d80 f0ed de00 85e1 a200 0d18 5480
000001b0: 3905 bd00 db49 1780 12e5 5100 0bbe 3f00
000001c0: 1f56 bb00 a9ca bf00 7b82 7100 4c05 e800
000001d0: 9a06 2baf 3f21 5980 6852 9380 6b99 1300
000001e0: 13a1 2c00 1a6d 8d80 131f 1928 b503 3f80
000001f0: d204 9c00 ab77 4480 50f9 cc97 ceca 7d80
5.607598e-39 -1.49768e-39 1.5716556e-38 -1.7062625e-38 -2.327558e-39 -1.953442e-38 6.151511e-39 1.882542e-39
6.138629e-39 -2.362886e-39 8.908812e-39 7.267155e-31 1.2537681e-38 2.1655843e-38 1.0511536e-38 6.60356e-40
4.990506e-39 -1.80242e-38 1.17036906e-14 -6.276528e-39 -3.4735728e-19 1.5314937e-38 1.9923973e-38 7.59655e-39
1.0329243e-38 -6.323368e-39 1.2523085e-38 -1.7061039e-38 -1.9374881e-38 -9.565394e-39 2.3454755e-32 -1.5300524e-38
-1.268843e-38 7.344854e-39 -2.152337e-39 3.335042e-10 -1.8737205e-38 -3.7176144e-18 -1.138748e-39 6.61518e-40
-9.311546e-39 -1.8307001e-06 -3.393449e-39 -1.87632e-38 3.746268e-39 1.3497597e-38 -9.243978e-39 -2.032341e-38
-5.24617e-39 -1.8438947e-38 1.2097136e-38 4.427002e-39 3.512374e-39 -1.7185544e-38 8.970074e-39 9.612837e-39
1.998928e-39 1.470006e-39 1.3262036e-38 1.1081124e-38 1.867344e-39 1.4823786e-38 -1.974302e-39 -9.429351e-39
4.632854e-39 -3.4974546e-13 -4.3758198e-26 -1.4654774e-38 1.8161736e-38 -5.502053e-39 4.706835e-39 -1.4771014e-38
9.364602e-39 1.4148291e-38 -1.7904319e-38 -1.6757039e-23 6.724945e-39 -2.032473e-38 -1.0709e-38 2.2339509e-38
-6.65353e-40 1.3193861e-38 1.922497e-38 1.6396132e-38 -8.921524e-39 6.806261e-39 -1.2339572e-38 5.09689e-40
1.6432077e-38 -4.576363e-39 3.278668e-13 1.2918132e-38 9.10916e-39 2.403981e-39 -3.41592e-39 -4.044512e-39
4.980685e-37 1.1043789e-38 -1.259669e-38 3.92637e-40 -1.6399327e-38 1.261406e-38 -1.5890296e-38 -1.3921506e-38
-5.634145e-39 2.0472836e-38 1.4958252e-38 -7.72281e-39 1.7358782e-38 -2.138711e-39 7.52085e-39 5.853811e-39
1.7204132e-38 1.761328e-38 1.0424219e-38 2.1307735e-38 -1.5554705e-10 -8.185286e-39 -1.352938e-38 1.79991e-39
4.098544e-39 -1.2987943e-38 8.499944e-15 -5.786966e-39 1.4328067e-38 -6.287743e-39 -1.3246126e-24 -1.155219e-38
