checkpoint_actor.pth (torch_old, 39709 bytes, 4 tensors)

fc1.weight f4 [256, 33]
000000 f1 73 8a 3c fc e2 23 bd 9e a0 08 3d 8b ab 09 bd
       0.016900988 -0.04001139 0.0333563 -0.03361086
000010 ea 6b e1 ba 21 09 38 bd 36 4c 4a 3d 36 00 82 bd
       -0.0017198299 -0.04493058 0.049389087 -0.063476965
000020 78 c9 4e bc 19 5c 29 bc 22 50 fb bc 65 9f f2 bb
       -0.012621276 -0.010336899 -0.030677859 -0.007404255
000030 82 ee a3 3c 57 5b ea 3d 05 2b de bd 4d 23 38 3c
       0.02001119 0.11443203 -0.10848049 0.011238885
000040 aa eb d8 3a 8e 77 a9 bc 0e 3d a7 3d 3a 54 43 bb
       0.0016549726 -0.02068689 0.08165942 -0.0029804842
000050 0c c6 2d bd b3 cf c0 bd c0 2f 47 bd 2b dc 2f bc
       -0.0424252 -0.094146155 -0.048629522 -0.0107336445
000060 75 bf a8 3d 21 b2 b6 3d 07 65 a0 3d dd 4f c1 bd
       0.082396425 0.08920694 0.078317694 -0.09439061
000070 7e 4c 52 bd b8 fd 86 3c de 22 ba 3c f0 47 45 3c
       -0.05134248 0.016478404 0.022721704 0.012041077
000080 8d 4e 2e bd 81 9a 18 3d 65 7f 69 bd cc 12 5e bd
       -0.04255538 0.03725672 -0.05700626 -0.054217145
000090 c6 87 9b bb 9c 62 1d bc 62 f8 a3 bd d2 47 51 3d
       -0.00474641 -0.00960603 -0.0800636 0.051093884
0000a0 6f 01 65 3d ab 21 2e bd 41 02 37 bd 1e bb 89 bd
       0.05590957 -0.042512577 -0.044679884 -0.06725143
0000b0 91 3a 37 bd b9 ea 6a 3d 8f c4 05 bd 0c 9d a0 bd
       -0.044733588 0.057352755 -0.032658156 -0.07842454
0000c0 a1 f9 94 3c 29 0c 7c bc 75 f8 56 bd fd d8 13 bd
       0.018185439 -0.015383759 -0.05248304 -0.036095608
0000d0 2f d3 0c 3d a4 f2 d6 3d 98 e9 1a bd 81 75 6f bd
       0.034381088 0.10495499 -0.03782043 -0.05846167
0000e0 6a 7b bb bd 62 69 8f bd 36 79 ae 3d 4d 4a b0 3c
       -0.09154399 -0.07002522 0.08519213 0.021519804
0000f0 9d 39 41 bd 3c 8b d0 3c e4 65 1a bd 48 fc e9 3d
       -0.047174085 0.025457017 -0.037694827 0.11425072
000100 46 63 33 bd 06 da a3 bd a7 cc 8c bc df 1d 18 bd
       -0.043795846 -0.08000569 -0.01718743 -0.037137862
000110 8d af 83 3d f0 db 59 bd 2a 25 41 3d 47 9a 59 bb
       0.06429968 -0.053188264 0.047154583 -0.0033203529
000120 da 2b 83 3d c2 4c 9f bd b6 d7 b1 3c 29 47 78 3c
       0.064048484 -0.07778312 0.021709304 0.015153685
000130 0e a9 b4 3d a5 71 58 3d 3b ba 6e 3c 2c 5b 52 bd
       0.08821307 0.052842755 0.014570768 -0.05135648
000140 ac 01 45 bb 73 cd cc 3d 7f 73 81 bd 12 07 42 b8
       -0.003006081 0.10000124 -0.06320857 -4.625979e-05
000150 26 c9 f3 3c e4 37 13 bc f5 c4 34 bd 15 2d 1a 3d
       0.029759001 -0.008985493 -0.044133145 0.03764065
000160 ea 24 ae bd 03 28 7a 3d aa 37 bf bc 48 da b7 bc
       -0.085031345 0.061073314 -0.023341972 -0.022442952
000170 30 0c f0 3d b2 4f f0 bd f5 db a9 bd 40 43 61 3b
       0.117210746 -0.11733951 -0.082939066 0.003437236
000180 85 4d fc 3d 00 1e 22 bd 9c 94 a5 bd 62 b7 cf bd
       0.12319473 -0.03957939 -0.080849856 -0.10142399
000190 25 9b 85 bc e2 31 ca 3d 11 96 0e 3d 48 7e 11 3d
       -0.01630933 0.09872796 0.034811083 0.03552082
0001a0 a0 79 99 3c cc ae 62 bd 45 85 7b 3d 09 9b ab 3c
       0.018734753 -0.05534248 0.061406393 0.02094795
0001b0 bc 15 85 3d b4 05 9f 3c 6c 75 75 3b 2b 20 14 3c
       0.06498286 0.0194119 0.0037454022 0.009040873
0001c0 81 a6 d4 bc b9 31 3e 3d b6 d8 c8 3d 6e c7 9f 3d
       -0.025958301 0.046434138 0.09806959 0.0780171
0001d0 6f 95 3b bc 79 78 82 bd 82 1b 8b bd 4d 30 bd bc
       -0.011449202 -0.063706346 -0.06792356 -0.02309432
0001e0 92 08 9f bd d3 48 0a 3d 84 91 41 3d 90 4c fe bc
       -0.077653065 0.033760857 0.047257915 -0.031042367
0001f0 a9 e5 84 bd f5 03 d7 bc 4f 78 ad bd 38 9d 92 3d
       -0.06489117 -0.026247004 -0.08470213 0.07158893
000200 e0 7b f2 3c a2 37 3d 3d 8e 05 4c 3d db ad 6b 3d
       0.029600084 0.046195634 0.049809985 0.05753885
000210 6f 8a 96 3d bc b9 c0 bd 7a 40 84 bd b4 1d 5f bc
       0.07350623 -0.09410426 -0.064576104 -0.013617922
000220 33 15 94 3d 7f f6 97 bd 4d 2d 8c 3c 41 ac 1e 3d
       0.07230606 -0.07420062 0.017111445 0.038738493
000230 56 cc 9b bd 06 e7 53 3d 37 0b a6 3d d6 95 67 bc
       -0.07607333 0.051733993 0.08107608 -0.014134845
000240 02 d6 e2 3c 25 1b 5e 3d fd 92 ef bc 9d ed c6 bd
       0.027689938 0.054225106 -0.029244894 -0.0971329
000250 88 af 85 3d 2f fa 70 bb e2 d9 1e 3d 80 00 9e bc
       0.065276206 -0.0036770215 0.038782008 -0.019287348
000260 3d 69 e9 bc 4c f8 49 bc ed 9d 66 bc 31 86 7b 3d
       -0.028492564 -0.012327265 -0.014075738 0.06140727
000270 b2 cc 2b 3d 3c e2 b1 3d c5 b9 e0 bc 64 0e ea bd
       0.04194326 0.08685729 -0.027432332 -0.11428526
000280 40 23 60 3d a8 fa 81 3c 45 fc b9 3d 58 3c 71 3c
       0.054721117 0.015866593 0.0908132 0.01472386
000290 40 d9 4b bd cb ef aa 3d 6e f9 d6 bd 8f 8f 8f 3d
       -0.049767733 0.08346518 -0.10496794 0.070098035
0002a0 0d 57 0b bd 65 05 92 bd 96 39 9f 3c 0d c8 1e 3d
       -0.034018565 -0.07129935 0.019436639 0.038765002
0002b0 92 bf 72 3d b6 d8 cf bc d7 e5 76 3d d6 22 2a bd
       0.059264727 -0.02537189 0.060277786 -0.04153713
0002c0 70 fc 74 3c 94 4a 9c 3d e1 13 5c 3d 2e 7c a6 bd
       0.014952764 0.07631412 0.053729896 -0.08129154
0002d0 8a f2 8a 3d e6 13 0b bc 0e 13 85 bd 8f 29 73 3d
       0.06784542 -0.008488631 -0.06497775 0.059365805
0002e0 e7 8d 0e 3d 29 d9 4e 3c f6 0e 8f bd b6 be 7a 3d
       0.034803297 0.012625017 -0.069852754 0.061217032
0002f0 da bc 1e bd e6 70 7f 3c 4a bb 9d 3d bb bd bc bc
       -0.03875432 0.015590882 0.07701738 -0.02303969
000300 cf c2 8b bd 81 dc 0e bd 6c 5f 73 3d 0c 92 db 3d
       -0.06824266 -0.034878258 0.059417173 0.107212156
000310 60 b7 00 bc 3f d4 cc bd 21 75 28 3d f3 07 4d bd
       -0.00785622 -0.1000142 0.041127328 -0.05005641
000320 56 69 61 3d a2 0d 36 3d 2d 2b 86 bd 5c 3d 07 3c
       0.055032097 0.044446595 -0.06551204 0.008254375
000330 c4 99 2f 3d 6d 66 d3 bb 88 7c 02 bd 72 ab a6 bc
       0.04287125 -0.006451419 -0.031857044 -0.020345423
000340 94 47 ab 3d b4 81 7d 3d 59 c9 92 3d 7d 7a 83 3d
       0.08363262 0.061891273 0.0716731 0.06419847
000350 79 56 a1 bd 23 3a 42 3d ce e1 01 39 ae 5c 8d bd
       -0.078778215 0.047418725 0.00012386517 -0.06902443
000360 82 f0 ca bc bb f9 3e 3c 7d 1b bf 3d f9 a5 9a bc
       -0.024772886 0.01165622 0.09331415 -0.01887797
000370 26 8d 61 3d af 9f ac 3d 9f 3d 22 3d b0 3c b5 3c
       0.05506625 0.08428895 0.039609548 0.022123665
000380 0d ee dd bd 96 a0 a1 bd e5 10 5d bd 18 3f c2 bc
       -0.1083642 -0.078919575 -0.05397119 -0.023711726
000390 48 63 ec 3d 4e ab 5a 3d bf 95 eb bb 3f 05 57 3d
       0.11542374 0.053386025 -0.007189482 0.052495237
0003a0 b8 6a 06 bd 99 7f 2a bd fb 49 ff bc af 42 af 3d
       -0.03281662 -0.041625593 -0.031163206 0.08557641
0003b0 24 45 d2 bc 66 a9 d8 3c 34 46 c9 3b c6 ae 15 3d
       -0.025667734 0.026447963 0.006142402 0.03654363
0003c0 52 90 be bc 02 48 98 3d 9d 52 85 3d 03 3a ab bc
       -0.023262177 0.074356094 0.06509898 -0.020901686
0003d0 c0 e1 af 3d c0 5b 16 bd 89 1b fb bd 78 60 42 3d
       0.0858798 -0.036708593 -0.12261111 0.04745528
0003e0 51 b6 8b 3d 2f 37 3f 3c 31 f1 5a bc c5 c5 bb 3d
       0.068218835 0.011670872 -0.013363169 0.09168581
0003f0 cc 45 0e bd 35 b6 8e bc 89 f2 6f 3d 3e b6 07 3b
       -0.034734532 -0.017420867 0.05858091 0.002070799

fc1.bias f4 [256]
000000 56 31 3f 3d 4b 0f f7 bb a1 32 75 3e 11 44 a9 bb
       0.04667791 -0.007539665 0.23945095 -0.005165585
000010 5e 6c 06 3e 47 5b 8c 3d 74 47 b5 bd 1b 58 00 3e
       0.13127276 0.06853347 -0.08851519 0.1253361
000020 46 fc 35 3e dc 28 67 3e db d2 ae bd 09 07 84 3e
       0.17772016 0.2257418 -0.08536311 0.25786617
000030 8d f3 b5 bc 05 9c 64 3e 1d 2f 7a 3e 05 f7 67 3e
       -0.02221086 0.22325142 0.24432035 0.22652824
000040 cf 01 07 3e 59 15 77 3d 34 cd be bc a7 f5 d5 bc
       0.13184284 0.060323093 -0.023291208 -0.026118113
000050 c4 86 dc 3d 62 33 3c 3b 3a 3b 11 3e e8 98 6e 3e
       0.10767892 0.002871715 0.1418275 0.23300517
000060 83 db 19 3c d8 4f e2 3d e8 ed 66 3e c3 83 d6 3d
       0.009390715 0.11050385 0.22551692 0.1047435
000070 8d a6 b5 3d de 82 1c bd a8 a1 05 3c 69 6c 43 3d
       0.08869658 -0.038210742 0.008156218 0.04771081
000080 0a ff b5 3d f5 bc a1 bd 5e 92 70 bd c4 a8 56 3e
       0.088865355 -0.07897369 -0.058733337 0.20962816
000090 bf 73 48 bd f0 72 2b bd c0 a8 70 3e f7 79 fa 3d
       -0.04893851 -0.04185766 0.23501873 0.12230294
0000a0 89 b3 74 bd ba 12 00 3e 6f 89 4a 3e 29 ef 5c 3e
       -0.05974153 0.12507144 0.1977899 0.21575607
0000b0 92 b4 5d 3e 43 be a5 3c a7 06 37 3e d2 2b 53 3d
       0.21650913 0.020232325 0.17873631 0.051555462
0000c0 34 85 41 3e 16 62 0a 3e e1 f2 69 bd 79 fe 08 3e
       0.18898469 0.1351398 -0.057116393 0.13378324
0000d0 1a d7 4c 3d 56 4b 37 3d 18 92 47 3c f3 b0 1b 3e
       0.050009824 0.04474958 0.012180828 0.1520422
0000e0 76 b1 9f 3c 53 4e 04 3e fa 99 f7 bd c6 be 08 3e
       0.0194938 0.12920503 -0.120899156 0.13354024
0000f0 50 02 13 bc f8 10 0d 3c 6f d4 f4 3d b0 94 ce 3d
       -0.008972719 0.008610003 0.11954581 0.10086954
000100 23 5d 4a bb c3 4a 7f bd c2 88 62 3e 10 1b 44 3d
       -0.0030878268 -0.062327158 0.22122481 0.04787737
000110 d9 4f cd 3d 60 52 84 3c cf 6a 59 3e 26 c9 38 bd
       0.10024995 0.01615256 0.2123215 -0.045113705
000120 63 36 bf bd e4 85 4a 3e 8c c0 16 3e dd 8e 1b 3e
       -0.09336545 0.19777638 0.14721888 0.15191217
000130 dd c2 70 bc a1 83 b2 3d e0 f9 03 bd 0b 03 95 3d
       -0.0146948965 0.087165125 -0.03222072 0.07275971
000140 38 18 80 3e b7 7c f3 3d d7 d8 0e bd 62 94 74 3d
       0.25018477 0.11889022 -0.034874763 0.05971182
000150 51 9e 28 3e df b7 48 3e 57 e4 be bd c2 8a 16 bd
       0.16466643 0.19601391 -0.09320896 -0.036753424
000160 6d f0 50 3c 5b a8 77 3e 68 49 59 3d 52 eb 28 3e
       0.0127526345 0.24185316 0.05304852 0.16496018
000170 6c 77 15 3e 02 46 54 3e 70 8f cb 3d ae f6 a7 3d
       0.14596337 0.20729831 0.09939468 0.08201347
000180 d1 82 90 3c f4 7d d2 bd 44 81 80 3d 65 e9 2d 3e
       0.017640503 -0.1027793 0.062746555 0.16983564
000190 50 9b 11 3e 0f f1 28 3e 28 8a e3 3d d7 7a 2a 3e
       0.14219403 0.16498207 0.111103356 0.16648422
0001a0 b2 7a 0c 3e a4 47 71 3d 96 38 c7 bc b4 a7 e3 3d
       0.1371868 0.058906212 -0.024318974 0.11115971
0001b0 39 6a d1 3d 40 dc 79 3d 43 c5 80 3e f1 0f 1c 3d
       0.102253385 0.061001062 0.251505 0.03810114
0001c0 7e a2 61 bd f8 fe ca bd 00 00 00 3e 40 5a d8 3d
       -0.055086605 -0.09911913 0.125 0.10564089
0001d0 60 2a 96 bd 49 07 27 bd fc 15 4c 3e a3 49 c0 3c
       -0.07332301 -0.040778432 0.19930261 0.023472613
0001e0 40 b9 5b 3e 93 09 52 3e c8 32 51 3c c8 f3 6a 3e
       0.21457386 0.20511465 0.012768455 0.22944558
0001f0 4e fe 7d 3e 70 e3 2f 3e 90 ea 3f bc 08 24 96 bb
       0.24804041 0.17176604 -0.011713639 -0.004581932
000200 5c e1 c7 bb 08 e5 d7 bd 62 32 bd bd b0 82 e1 bd
       -0.006099863 -0.10541731 -0.092381254 -0.11011255
000210 53 f2 47 3e 6d 82 7a bc 27 e2 d2 3c dc db 02 3e
       0.19526033 -0.015289885 0.025742603 0.12779182
000220 7d 28 b9 3d d2 28 b2 bd 86 1a 3a 3b 8f ec 71 3d
       0.09040926 -0.08699192 0.0028397157 0.05906349
000230 96 e0 7a 3d 84 c6 73 3d 8b ce 1d 3e 8d a8 88 3d
       0.061249338 0.05951549 0.15410821 0.066727735
000240 d3 bd 2f bd d0 39 23 3c 9f d7 06 3d 3d 2b 2c 3e
       -0.04290564 0.009962514 0.032920476 0.16813369
000250 1c 6e 4a 3e 02 f4 b3 bc d9 8e 17 bd ee 76 03 3e
       0.19768566 -0.021966938 -0.037001465 0.12838337
000260 dd 4a 07 3e 82 81 3c 3d 36 f0 22 3e f2 d1 9d 3d
       0.13212152 0.046021946 0.15911946 0.077060595
000270 25 ee 61 bc fe fd 00 3e 81 b3 5a 3b 3a 87 0c bd
       -0.013789688 0.1259689 0.0033371153 -0.03430865
000280 c3 f8 7e 3d 1f 8a eb bc c7 08 1f 3e cb fe 84 3e
       0.062248956 -0.028752385 0.15530692 0.25975642
000290 c2 c8 26 3e e7 e3 d3 bb 9f 57 87 bc 58 ce 12 bb
       0.1628752 -0.006466377 -0.016521273 -0.0022400822
0002a0 da 89 b9 bd 43 a2 cc bc 30 70 45 3e 44 4d 60 3e
       -0.09059496 -0.024979716 0.19281077 0.21904474
0002b0 cc f7 19 3c 17 48 00 3e 2a e8 b9 3d 17 db ec 3d
       0.009397458 0.125275 0.09077485 0.115652256
0002c0 3c 47 c5 bc bd bc f4 bc 4b 6a 5a 3d b1 ab bf 3c
       -0.024081819 -0.029875154 0.053324025 0.023397299
0002d0 70 df 4b 3c 8e 50 d0 3d 7a 0a cd 3d e0 d3 59 bd
       0.012443408 0.101716146 0.10011764 -0.053180575
0002e0 a2 28 59 3d 7b 02 f4 3d 19 fc 57 3e d8 f0 a9 bd
       0.053017266 0.119145356 0.21092261 -0.082978904
0002f0 b1 45 59 3b b6 71 4e 3e 2c b7 2a 3b 5c 29 03 3e
       0.0033153112 0.20160565 0.002604912 0.12808746
000300 45 c4 4c 3e 1e ca 3e 3d ea 62 51 3d dd 87 c3 bc
       0.19996746 0.046579473 0.051119722 -0.023868496
000310 6e 4a 2f 3e a5 c9 30 3e 15 2f b1 bd 0c ab 24 3e
       0.17118236 0.17264421 -0.08651558 0.16080874
000320 d2 df 61 3e 21 d9 6e 3e af 00 15 3e e1 90 61 3e
       0.22058037 0.23325016 0.14551042 0.22027923
000330 a2 67 ac 3d f3 07 12 bd 9f a3 2a bd 56 1e 9f bd
       0.08418204 -0.035652112 -0.041659947 -0.07769458
000340 b8 a7 21 3e a0 5a 35 3e 45 0f 75 bd be 99 f8 3d
       0.15786636 0.17710352 -0.059829015 0.12138699
000350 06 e5 aa 3c 9b 81 0c 3e c8 2e b8 bc ac 80 8a 3d
       0.02086116 0.13721316 -0.022483245 0.067628235
000360 d8 1e b1 3a 37 b9 7b bd 80 b1 9f 3c d2 89 79 3e
       0.001351322 -0.06145593 0.019493818 0.2436898
000370 43 17 ef 3d ec 9b 8b bd 64 5d 0a 3e 6f ad be bd
       0.11674359 -0.06816849 0.13512188 -0.093104236
000380 f7 5d 5d 3e 3b 78 be bd 90 5a 89 3c 4a 12 a9 bd
       0.21617876 -0.09300276 0.016766816 -0.082554415
000390 ff e6 55 3a f5 25 46 3e 88 69 08 3e fe 94 97 3d
       0.0008159726 0.19350417 0.13321507 0.07401465
0003a0 82 a4 86 bd 2e bb 47 3e 71 2c b9 3c 18 99 0b 3d
       -0.06574346 0.19504997 0.0226042 0.03408155
0003b0 6f a3 38 3e 82 df 12 3e 68 a7 88 bd b3 2a a3 3d
       0.18031095 0.14343074 -0.06672555 0.079671286
0003c0 58 0f 59 bd df 16 47 bd c7 4e af 3d 3e 53 4a 3d
       -0.05299315 -0.048605796 0.085599475 0.049395792
0003d0 30 32 d1 3d 15 8d 3d bd 8c 97 da 3d ce 34 3f 3e
       0.10214651 -0.046277124 0.106734365 0.18672487
0003e0 b0 b0 24 3d 0d 41 6d 3e f9 17 b3 3d 0e 07 70 bc
       0.040207565 0.23169346 0.08744807 -0.0146501195
0003f0 4d a9 b8 bc 42 b9 f4 3d ac 85 6b bd 6e f5 41 bd
       -0.022541666 0.119493976 -0.057500526 -0.0473532

fc2.weight f4 [4, 256]
000000 4d 62 f4 bc 12 8b f0 bc 9e 03 53 bd 0d 7b 9c bb
       -0.02983203 -0.029363189 -0.05151712 -0.004775411
000010 3f d3 b6 bc 4a 05 18 bd 8c 48 1a bd c4 05 15 bd
       -0.022317527 -0.03711442 -0.037666842 -0.03638245
000020 56 17 fb bc ed 06 ad bc 34 93 dc bb 70 70 94 bd
       -0.030650776 -0.021121467 -0.006731415 -0.07248008
000030 89 d1 82 bc 9c 7d a0 bc 1e d8 ed bc 5b 9e a1 bc
       -0.015969055 -0.019591145 -0.029033717 -0.01972883
000040 81 d9 c1 bc b1 e9 83 bc 9f bb 8f bc d9 7c 0f bd
       -0.023663284 -0.016102644 -0.01754552 -0.035031173
000050 90 b2 8a bc 02 19 b1 bc 06 92 41 bd 06 c7 b4 bc
       -0.016930848 -0.02161837 -0.0472584 -0.022067558
000060 92 83 a9 bc 57 af 95 bc 22 d1 19 bd 38 26 48 bd
       -0.02069262 -0.018272085 -0.03755296 -0.048864573
000070 d9 11 d9 bb 55 47 f8 bc e6 f9 e1 bc 04 53 c5 bc
       -0.006624442 -0.030307451 -0.027584981 -0.024087436
000080 16 92 66 bc 04 fd bb bc b2 d0 bd bb f1 4b cd bc
       -0.014072916 -0.022947796 -0.0057927007 -0.025060626
000090 7d 98 8d bc d0 34 98 bc 14 32 42 bd 9d e9 83 bc
       -0.017284626 -0.01857987 -0.04741104 -0.016102606
0000a0 82 cd af bc 4f 4c 82 bc 37 27 0b bd 8c b2 cb bc
       -0.021460298 -0.015905527 -0.033972945 -0.024865411
0000b0 f2 a5 96 bc 84 ab fb bc 5e 78 67 bc f3 e8 9f bc
       -0.018389676 -0.030721433 -0.014127819 -0.019520259
0000c0 8a 80 f2 bb e2 5b 0e bc 23 54 3c bd 3c 96 08 bc
       -0.007400577 -0.008688899 -0.045978677 -0.0083366
0000d0 3a bf 19 bd 30 1a 1e bd ea 93 7d bc 3b e9 69 bc
       -0.037535883 -0.038599193 -0.01547716 -0.014276798
0000e0 f9 b4 60 bb 45 ba 8a bc 50 97 a0 bc b3 48 39 bc
       -0.0034287556 -0.016934523 -0.019603401 -0.011308837
0000f0 b0 4c 4b bc 6b ef 11 bd f5 ef 75 bc a2 a1 1a bd
       -0.01240842 -0.035628717 -0.0150108235 -0.0377518
000100 a2 ac c0 bc 57 84 34 bd 23 38 e9 bc 3e d3 a1 bb
       -0.023519818 -0.04407152 -0.02846915 -0.004938512
000110 51 c3 b5 bb 2d 81 f1 bc e5 19 4d bd 17 a7 9c bc
       -0.005546965 -0.029480541 -0.050073523 -0.019122643
000120 c3 df 1d bc b4 1a 3e bd d7 0e 3a bd 19 7d 77 bc
       -0.0096358685 -0.046412185 -0.04542431 -0.015105509
000130 5a 0d 04 bd 7c d4 d2 bc 42 c3 88 bc 7d f8 a8 bb
       -0.032239296 -0.025736086 -0.016694669 -0.0051565752
000140 f8 d7 df bc bf c9 92 bc fe 1f ed bb 85 08 42 bd
       -0.027324662 -0.017918466 -0.00723648 -0.047371406
000150 92 bc a3 bc ff 78 9b bc b6 ee 0b bd fd 14 49 bb
       -0.019987378 -0.018978594 -0.0341632 -0.0030682676
000160 a6 16 0b bd 68 91 08 bd 55 11 ce bc 07 1e 2f bc
       -0.033957146 -0.033341795 -0.025154749 -0.010688311
000170 f8 b0 dd bc 79 ab 3e bd a4 92 48 bd 25 30 27 bd
       -0.027061924 -0.046550248 -0.048967972 -0.0408174
000180 94 10 36 bc 27 94 8d bc c9 7f b9 bc ec 3f 3d bd
       -0.011112351 -0.017282559 -0.02264394 -0.04620354
000190 f6 9c c4 bc 5c 43 4a bd 6a 5e 42 bd 86 5b ae bc
       -0.024000626 -0.049380645 -0.04745332 -0.021283876
0001a0 c7 51 b0 bc ab e4 59 bc 48 c3 88 bc 57 37 03 bd
       -0.02152337 -0.013299148 -0.01669468 -0.032035198
0001b0 be 30 0c bd 84 61 b4 bc 1b 3d 2f bd 8e 57 a3 bc
       -0.03422617 -0.022019155 -0.042782884 -0.01993921
0001c0 37 5d 12 bd c6 9f cf bc a8 d8 fe bc d8 ac 73 bd
       -0.035733428 -0.02534474 -0.03110917 -0.05949101
0001d0 30 18 49 bc ab 1d 88 bc 8e 3b 2e bd 8a f3 c9 bc
       -0.012273833 -0.01661571 -0.042537265 -0.024652261
0001e0 ca b2 25 bd f1 f8 06 bd 53 bf e0 bc ff b8 30 bd
       -0.04045371 -0.032952253 -0.02743498 -0.043145176
0001f0 dd 07 ea bc 1c 70 0b bc 7f 5a 1b bd ce a5 89 bc
       -0.028568203 -0.008510616 -0.0379281 -0.016802695
000200 32 02 f7 bc 90 c9 f1 bc 02 6c 23 bc e6 e3 b0 bb
       -0.030152414 -0.029515058 -0.009974482 -0.0053982614
000210 ee 17 e7 bc fb 69 0a bd a9 c3 a4 bc da d4 10 bd
       -0.028209653 -0.033792477 -0.02011283 -0.03535924
000220 92 c6 92 bc 4a 3b 98 bb b9 2f 0a bd 8b cf e0 bc
       -0.017916951 -0.0046457397 -0.033736918 -0.027442714
000230 d8 51 d6 bc 59 a6 d4 bc eb 17 d7 bc 6e 4b ee bc
       -0.026162073 -0.025958227 -0.026256522 -0.029088702
000240 88 31 5a bb 29 1d e9 bc 09 13 fb bc 6f 14 c6 bc
       -0.0033293683 -0.028456287 -0.030648725 -0.024179665
000250 a7 19 34 bd 3c 17 83 bd d2 22 0e bd 87 4f e2 bc
       -0.043969776 -0.06400916 -0.034701176 -0.027625812
000260 f5 ff db bc c6 ae 94 bc bb 80 a8 bc c4 b3 0f bd
       -0.026855448 -0.018149745 -0.020569196 -0.035083547
000270 ea 44 71 bc ca df e3 bc 48 99 8c bc ba 37 fc bc
       -0.014725903 -0.027816672 -0.017162934 -0.030788291
000280 0f 40 17 bc 54 6e ce bc 91 10 dc bc 09 6a 2f bd
       -0.009231581 -0.025199093 -0.026863368 -0.042825732
000290 23 e9 13 bd 77 c1 e8 bc 2c 49 09 bd c4 de f9 bc
       -0.03611101 -0.028412564 -0.033517048 -0.03050173
0002a0 a2 1f 11 bb 85 2c 8d bb e7 eb ff bc b8 b5 ff bc
       -0.0022144099 -0.0043082857 -0.031240417 -0.03121458
0002b0 9e 26 c2 bc 94 61 95 bc da 11 fd bc 21 4d 13 bc
       -0.023700055 -0.018235005 -0.030892301 -0.008990557
0002c0 fd e7 f1 bc 75 fd 2a bd 44 9e b4 bc c0 5c 0a bd
       -0.029529566 -0.04174562 -0.022048123 -0.03377986
0002d0 df f1 b3 bc a6 0c c8 bc f1 48 3d bd 21 dc c7 bc
       -0.021965919 -0.024420094 -0.04621214 -0.024396958
0002e0 ae 66 fa bc a3 b5 fa bc 5b e8 77 bd ab d4 ac bb
       -0.03056654 -0.03060419 -0.060524326 -0.0052743754
0002f0 42 45 34 bd eb e9 e3 bc e2 85 80 bc a6 c6 3a bd
       -0.044011362 -0.027821502 -0.01568884 -0.045599602
000300 e1 b2 8b bc e4 13 5c bc 1f 3b a5 bc fe 8a b1 bc
       -0.01705307 -0.013432477 -0.020169793 -0.021672722
000310 07 76 f6 bc c9 c7 34 bd 2b 14 ef bc ee 38 7e bc
       -0.030085577 -0.044135842 -0.029184422 -0.015516503
000320 99 95 f5 bc 0d 15 2c bd 4c 15 14 bd f9 d4 f6 bc
       -0.02997856 -0.042012263 -0.036153123 -0.03013085
000330 dc 16 83 bc 6f 13 0d bc ad 70 c9 bc e1 e5 65 bc
       -0.016002111 -0.00861059 -0.02458986 -0.014031858
000340 25 ba e7 bc f1 69 55 bd 60 10 88 bc c3 76 06 bd
       -0.028287003 -0.052102987 -0.01660937 -0.032828104
000350 10 18 ae bc a5 70 f6 bc e7 3f 1f bd d2 77 ee bb
       -0.021251708 -0.03008301 -0.0388793 -0.0072774673
000360 de 8c 9b bc b6 aa 99 bc 2e bb 1c bd 87 5e 0b bd
       -0.01898807 -0.01875816 -0.038264446 -0.034025695
000370 90 2e 54 bc 3b e6 11 bd 77 08 cb bc 3d d1 6a bc
       -0.0129505545 -0.035619956 -0.02478431 -0.014332113
000380 7d 31 59 bc 36 0c f1 bc d1 7f b2 bc 23 2a 34 bd
       -0.013256428 -0.029424768 -0.021789463 -0.043985497
000390 87 c8 89 bb 6a b3 9b bc b6 50 90 bc 6f 53 ce bc
       -0.004204813 -0.01900645 -0.017616611 -0.025186269
0003a0 85 60 63 bc ed 7e bd bc ef a8 5b bc e2 e4 a2 bc
       -0.0138779925 -0.023131812 -0.013406976 -0.01988453
0003b0 3a 07 61 bd a1 75 03 bd 54 e7 af bc 61 7b 08 bc
       -0.054938532 -0.0320946 -0.02147261 -0.008330197
0003c0 b8 75 e9 bc c4 62 2f bd 74 f8 86 bc 5d a7 40 bd
       -0.028498515 -0.0428188 -0.016475894 -0.04703461
0003d0 18 c0 23 bc 91 dc 05 bd 71 33 e8 bc d5 dc d7 bc
       -0.009994529 -0.03268105 -0.028344842 -0.026350418
0003e0 cd 88 92 bc 7a fb b7 bc 82 30 07 bd 66 5f 30 bd
       -0.017887497 -0.02245878 -0.033005245 -0.04305973
0003f0 ce 53 1d bc b4 6d 35 bd 87 a4 b1 bc 54 e8 eb bc
       -0.0096025 -0.044294074 -0.021684898 -0.028797306

fc2.bias f4 [4]
000000 11 8c a2 bd 68 f5 bb bc a8 f7 89 3d ab 5f 10 bd
       -0.07936872 -0.022944167 0.0673669 -0.035247486
